XAUEUR FRED D1.onnx (onnx, 1762 bytes, 5 tensors)

coefficient f4 [6, 20]
1.546605 -0.3757807 -2.0226574 -0.8386849 -0.184741 0.63091815 0.49070364 0.051217984
1.8819178 -0.101736166 -1.6211828 -1.7231063 -0.23688577 0.7827535 -0.5578628 -0.9434074
-2.3782082 0.409784 0.18314421 0.38262248 1.0076166 0.1500646 -2.403189 -0.20250843
0.19958101 0.56590873 0.30415633 -0.22427772 1.8234085 -0.3179937 -2.3091924 -0.8060336
-0.48503834 1.12968 -0.43923217 -0.8852922 -2.2188861 1.0104147 0.7282872 0.41134086
1.979974 0.026190026 -1.858214 -0.574611 0.4206818 1.0749431 1.211823 0.00996128
1.7361751 0.07400021 -1.7216923 -1.0533032 -1.1164956 1.212473 -0.7996416 -0.99412155
-1.5726441 0.48328072 -0.06712777 0.6276643 1.641469 0.35433176 -1.6928533 -0.6078512
-0.462067 0.21019578 0.58914953 -0.37500393 1.8529205 -0.3826798 -2.477053 -1.5393836
-0.104562856 0.47352973 -0.62882215 -1.56051 -2.1434655 1.0192903 0.7556889 -0.00057935965
-0.2971201 0.21543184 0.3937779 0.41855913 0.1808689 -0.29816622 -0.3036192 -0.26719892
0.21757515 0.02263619 0.6228465 0.5063363 -0.03554393 0.2530635 0.5504628 0.19582433
-0.017130319 -0.16473001 -0.21613134 0.41742876 0.069394045 0.30015427 -0.49527305 -0.06635868
0.3005459 -0.06652449 0.36099923 -0.04336394 0.43933454 0.25389865 -0.31204018 0.13694325
-0.60267335 -0.13012405 -0.51288164 -0.24550061 -0.1982896 0.1132821 0.15183184 0.45676696
00000000: 27f7 c53f 5466 c0be 3873 01c0 0eb4 56bf
00000010: bf2c 3dbe da83 213f 823d fb3e f3c9 513d
00000020: afe2 f03f 0d5b d0bd eb82 cfbf bf8e dcbf
00000030: 2f92 72be 8962 483f 19d0 0ebf 2683 71bf
00000040: 9034 18c0 35cf d13e 288a 3b3e 18e7 c33e
00000050: 95f9 803f 89aa 193e d9cd 19c0 5f5e 4fbe
00000060: f75e 4c3e 65df 103f 61ba 9b3e 0fa9 65be
00000070: 7365 e93f 12d0 a2be cfc9 13c0 3858 4ebf
00000080: f256 f8be 5b99 903f 0ae3 e0be 82a2 62bf
00000090: 3b02 0ec0 4555 813f 0871 3a3f 459b d23e
000000a0: ca6f fd3f 778c d63c f5d9 edbf b519 13bf
000000b0: 9b63 d73e bc97 893f 041d 9b3f a334 233c
000000c0: fc3a de3f 6c8d 973d 6a60 dcbf a4d2 86bf
000000d0: 54e9 8ebf 5132 9b3f 50b5 4cbf c07e 7ebf
000000e0: 674c c9bf 9270 f73e 497a 89bd 9cae 203f
000000f0: a81b d23f f96a b53e 6baf d8bf 239c 1bbf
00000100: 0c94 ecbe 903d 573e 81d2 163f 8400 c0be
00000110: 802c ed3f 9bee c3be 0988 1ec0 860a c5bf
00000120: 0d25 d6bd 7d72 f23e 7dfa 20bf cbbe c7bf
00000130: 8a2e 09c0 1b78 823f d474 413f 2be0 17ba
00000140: 2020 98be 2a9a 5c3e 429d c93e 624d d63e
00000150: b235 393e 3ea9 98be fa73 9bbe 4cce 88be
00000160: 05cc 5e3e 886f b93c de72 1f3f 419f 013f
00000170: 8396 11bd 8a91 813e 21eb 0c3f 2c86 483e
00000180: e254 8cbc fcae 28be 8951 5dbe 39b9 d53e
00000190: 771e 8e3d d2ad 993e 6e94 fdbe 0fe7 87bd
000001a0: 27e1 993e fe3d 88bd e4d4 b83e 639e 31bd
000001b0: 75f0 e03e 01ff 813e bbc3 9fbe da3a 0c3e
000001c0: cd48 1abf 3d3f 05be 364c 03bf 8364 7bbe
000001d0: 6e0c 4bbe 7200 e83d ce79 1b3e 5cdd e93e

intercepts f4 [1, 20]
4.9657607 1.8741155 -6.6567597 -2.7147608 -1.7324532 0.37333488 1.5038047 -1.5391549
8.691662 -0.07101632 -10.104261 -4.2694526 -0.33793414 2.0548291 -1.8399388 -5.977805
-8.927652 4.6780267 3.313989 -0.28777024
00000000: 83e7 9e40 04e3 ef3f 2d04 d5c0 a4be 2dc0
00000010: 07c1 ddbf c025 bf3e ac7c c03f 0703 c5bf
00000020: 0c11 0b41 0171 91bd 0eab 21c1 5b9f 88c0
00000030: b405 adbe 5282 0340 1d83 ebbf 2e4a bfc0
00000040: aad7 0ec1 65b2 9540 6518 5440 9f56 93be

coefficient1 f4 [20, 5]
-2.3329709 1.0724472 0.91238654 -1.7097472 -2.4463532 2.9486856 -1.13811 -0.7452809
2.571593 4.3987126 3.8063178 -1.3626883 -1.1100719 3.0558765 4.383648 -0.4799202
0.61536324 -0.028030518 -0.2099771 -0.7038054 -1.6784328 1.1601553 0.63680786 -1.2694824
-2.7122018 -3.515165 1.8776114 1.0902351 -1.932829 -3.9023087 -4.1937222 1.3181628
1.3719722 -2.4392688 -4.079892 -3.7204697 1.9282613 1.8023273 -2.380122 -5.2439046
3.4641323 -1.5082237 -0.9926674 2.0640037 3.8347118 -0.14994982 -0.022672448 -0.26157245
-0.17284414 0.75893897 -4.619671 2.2188067 1.192345 -2.6079907 -5.4725895 0.67343414
-0.6345412 0.07513456 0.24775249 0.25541928 2.3964126 -1.3234444 -0.31370714 1.564582
3.2007873 -4.182562 1.8062041 1.5266104 -2.6022737 -5.201277 2.7024457 -0.9394682
-0.41245013 1.7642497 2.6872065 -1.8599304 1.2674123 0.43505812 -1.4040627 -2.7080097
-1.444997 1.2274925 0.83507586 -1.0061016 -2.1389322 4.7561297 -2.1512306 -1.9571333
3.002526 5.5116625 4.280266 -2.2467692 -1.3630072 2.4788914 4.933408 -1.6903727
1.302149 0.62698543 -0.6972294 -1.9439002
00000000: 654f 15c0 f345 893f 2a92 693f ffd8 dabf
00000010: 0d91 1cc0 44b7 3c40 97ad 91bf bbca 3ebf
00000020: fb94 2440 41c2 8c40 b69a 7340 926c aebf
00000030: d616 8ebf 7b93 4340 d846 8c40 1ab8 f5be
00000040: 7288 1d3f 42a0 e5bc 3d04 57be 972c 34bf
00000050: e3d6 d6bf f87f 943f d705 233f 667e a2bf
00000060: b794 2dc0 77f8 60c0 9255 f03f d38c 8b3f
00000070: f166 f7bf 6dbf 79c0 f932 86c0 8fb9 a83f
00000080: c99c af3f fb1c 1cc0 7a8e 82c0 2d1c 6ec0
00000090: 44d1 f63f a9b2 e63f eb53 18c0 11ce a7c0
000000a0: 58b4 5d40 790d c1bf 731f 7ebf a318 0440
000000b0: eb6b 7540 728c 19be 92bb b9bc d3ec 85be
000000c0: 0efe 30be d349 423f 58d4 93c0 ee00 0e40
000000d0: c39e 983f 52e9 26c0 741f afc0 2e66 2c3f
000000e0: 4b71 22bf 26e0 993d d4b2 7d3e 51c6 823e
000000f0: d35e 1940 a066 a9bf 399e a0be 3944 c83f
00000100: b3d9 4c40 8cd7 85c0 b231 e73f f867 c33f
00000110: a78b 26c0 dc70 a6c0 dff4 2c40 fd80 70bf
00000120: aa2c d3be efd2 e13f 31fb 2b40 3312 eebf
00000130: 913a a23f f0bf de3e 54b8 b3bf 0850 2dc0
00000140: a9f5 b8bf 791e 9d3f 88c7 553f f0c7 80bf
00000150: 44e4 08c0 3732 9840 c3ad 09c0 5883 fabf
00000160: 6329 4040 8a5f b040 f0f7 8840 11cb 0fc0
00000170: 0577 aebf 28a6 1e40 7ade 9d40 225e d8bf
00000180: d2ac a63f 1e82 203f a07d 32bf b9d1 f8bf

intercepts1 f4 [1, 5]
8.876351 -4.195042 -2.8166077 5.5096755 10.581885
00000000: 8905 0e41 c93d 86c0 4d43 34c0 434f b040
00000010: 674f 2941

coefficient2 f4 [5, 1]
0.9357223 -14.849952 8.170344 -3.4335697 6.0679603
00000000: 7f8b 6f3f 6799 6dc1 bbb9 0241 9bbf 5bc0
00000010: bb2c c240
